…
device_train_microbatch_size: 16
precision: amp_bf16
progress_bar: false
log_to_console: true
console_log_interval: 10ba
loggers:
  wandb:
    project: mosaicbertfinetune_lncfull
callbacks:
  speed_monitor:
    window_size: 50
  lr_monitor: {}
'2': null

WARNING: device_train_microbatch_size > device_train_batch_size, will be reduced from 16 -> 4.
Initializing model...
n_params=1.1707e+08
Building train loader...
{0, 1}
6102
Building eval loader...
{0, 1}
322
HuggingFaceModel(
  (model): BertForSequenceClassification(
    (bert): BertModel(
      (embeddings): BertEmbeddings(
        (word_embeddings): Embedding(4098, 768, padding_idx=0)
        (token_type_embeddings): Embedding(2, 768)
        (LayerNorm): LayerNorm((768,), eps=1e-12, elementwise_affine=True)
        (dropout): Dropout(p=0.1, inplace=False)
      )
      (encoder): BertEncoder(
        (layer): ModuleList(
          (0-11): 12 x BertLayer(
            (attention): BertUnpadAttention(
              (self): BertUnpadSelfAttention(
                (dropout): Dropout(p=0.0, inplace=False)
                (Wqkv): Linear(in_features=768, out_features=2304, bias=True)
              )
              (output): BertSelfOutput(
                (dense): Linear(in_features=768, out_features=768, bias=True)
                (LayerNorm): LayerNorm((768,), eps=1e-12, elementwise_affine=True)
                (dropout): Dropout(p=0.1, inplace=False)
              )
            )
            (mlp): BertGatedLinearUnitMLP(
              (gated_layers): Linear(in_features=768, out_features=6144, bias=False)
              (act): GELU(approximate='none')
              (wo): Linear(in_features=3072, out_features=768, bias=True)
              (dropout): Dropout(p=0.1, inplace=False)
              (layernorm): LayerNorm((768,), eps=1e-12, elementwise_affine=True)
            )
          )
        )
      )
      (pooler): BertPooler(
        (dense): Linear(in_features=768, out_features=768, bias=True)
        (activation): Tanh()
      )
    )
    (dropout): Dropout(p=0.1, inplace=False)
    (classifier): Linear(in_features=768, out_features=2, bias=True)
  )
)
wandb: Currently logged in as: naimavahaboo (naimavahaboo-RMIT University). Use `wandb login --relogin` to force relogin
wandb: wandb version 0.17.5 is available!  To upgrade, please run:
wandb:  $ pip install wandb --upgrade
wandb: Tracking run with wandb version 0.16.6
wandb: Run data is saved locally in /mosaicml-examples/examples/benchmarks/bert/wandb/run-20240730_004308-yiifc2nm
…
